…
We provide ``token mixing&#039;&#039; linear attention layers in `fla.layers` for you to use.
You can replace the standard multihead attention layer in your model with other linear attention layers.
Example usage is as follows:
```py
&gt;&gt;&gt; import torch
&gt;&gt;&gt; from fla.layers import MultiScaleRetention
&gt;&gt;&gt; batch_size, num_heads, seq_len, hidden_size = 32, 4, 2048, 1024
&gt;&gt;&gt; device, dtype = &#039;cuda:0&#039;, torch.bfloat16
&gt;&gt;&gt; retnet = MultiScaleRetention(hidden_size=hidden_size, num_heads=num_heads).to(device=device, dtype=dtype)
&gt;&gt;&gt; retnet
MultiScaleRetention(
  (q_proj): Linear(in_features=1024, out_features=1024, bias=False)
  (k_proj): Linear(in_features=1024, out_features=1024, bias=False)
  (v_proj): Linear(in_features=1024, out_features=2048, bias=False)
  (g_proj): Linear(in_features=1024, out_features=2048, bias=False)
  (o_proj): Linear(in_features=2048, out_features=1024, bias=False)
  (g_norm_swish_gate): FusedRMSNormGated(512, eps=1e-05, activation=swish)
  (rotary): RotaryEmbedding(dim=256, base=10000.0, interleaved=False, pos_idx_in_fp32=True)
)
&gt;&gt;&gt; x = torch.randn(batch_size, seq_len, hidden_size).to(device=device, dtype=dtype)
&gt;&gt;&gt; y, *_ = retnet(x)
&gt;&gt;&gt; y.shape
torch.Size([32, 2048, 1024])
```

We provide the implementations of models that are compatible with 🤗 Transformers library.
…
  &quot;max_position_embeddings&quot;: 2048,
  &quot;model_type&quot;: &quot;gla&quot;,
  &quot;norm_eps&quot;: 1e-06,
  &quot;num_heads&quot;: 4,
  &quot;num_hidden_layers&quot;: 24,
  &quot;num_kv_heads&quot;: null,
  &quot;tie_word_embeddings&quot;: false,
  &quot;transformers_version&quot;: &quot;4.50.1&quot;,
  &quot;use_cache&quot;: true,
  &quot;use_gk&quot;: true,
  &quot;use_gv&quot;: false,
  &quot;use_output_gate&quot;: true,
  &quot;use_short_conv&quot;: false,
  &quot;vocab_size&quot;: 32000
}

&gt;&gt;&gt; AutoModelForCausalLM.from_config(config)
GLAForCausalLM(
  (model): GLAModel(
    (embeddings): Embedding(32000, 2048)
    (layers): ModuleList(
      (0-23): 24 x GLABlock(
        (attn_norm): RMSNorm(2048, eps=1e-06)
        (attn): GatedLinearAttention(
          (q_proj): Linear(in_features=2048, out_features=1024, bias=False)
          (k_proj): Linear(in_features=2048, out_features=1024, bias=False)
          (v_proj): Linear(in_features=2048, out_features=2048, bias=False)
          (g_proj): Linear(in_features=2048, out_features=2048, bias=False)
          (gk_proj): Sequential(
            (0): Linear(in_features=2048, out_features=16, bias=False)
            (1): Linear(in_features=16, out_features=1024, bias=True)
          )
          (o_proj): Linear(in_features=2048, out_features=2048, bias=False)
          (g_norm_swish_gate): FusedRMSNormGated(512, eps=1e-06, activation=swish)
        )
        (mlp_norm): RMSNorm(2048, eps=1e-06)
        (mlp): GatedMLP(
          (gate_proj): Linear(in_features=2048, out_features=5632, bias=False)
          (up_proj): Linear(in_features=2048, out_features=5632, bias=False)
          (down_proj): Linear(in_features=5632, out_features=2048, bias=False)
          (swiglu_linear): SwiGLULinear()
        )
      )
    )
    (norm): RMSNorm(2048, eps=1e-06)
  )
  (lm_head): Linear(in_features=2048, out_features=32000, bias=False)
)
```

### Fused Modules

We offer a collection of fused modules in `fla.modules` to facilitate faster training:

* [`Rotary Embedding`](fla/modules/rotary.py): rotary positional embeddings as adopted by the Llama architecture, a.k.a., Transformer++.
* [`Norm Layers`](fla/modules/layernorm.py):
  * `RMSNorm`, `LayerNorm` and `GroupNorm`
  * `RMSNormLinear`, `LayerNormLinear` and `GroupNormLinear` to reduce memory usage of intermediate tensors for improved memory efficiency.
…
